saved_models/mar/11/col.pt (torch_old, 1613 bytes, 6 tensors)

fc1.weight f4 [10, 2]
00000000: 55d8 293e 6c5b e3be 8cf6 c43c 1a79 b2be
00000010: 55ce 81bd 6413 15bf 4504 9e3c a36c cebe
00000020: 8b32 213b ddd4 0abf 75c7 083e 4178 3e3e
00000030: 2475 9dbb 6e75 e1be 7305 553e 0c6f 853d
00000040: 56f1 f1bc 22db e93e 401d 083c 8f3d 6f3e
0.1658643 -0.44405687 0.024043344 -0.34858018 -0.06338183 -0.5823271 0.019289145 -0.40317258
0.0024596776 -0.54231054 0.13357337 0.1860056 -0.004805224 -0.44034904 0.2080286 0.06515321
-0.029534023 0.45674998 0.008307755 0.23363326

fc2.weight f4 [1, 10]
00000000: 7343 03bf 0d1d bfbe 268f 12bf b323 debe
00000010: d9d4 19bf e7da 133e 7046 e7be ca94 523c
00000020: 6ab2 013f eb26 793e
-0.51274794 -0.3732685 -0.5724968 -0.4338661 -0.60090405 0.14438973 -0.45170927 0.012852857
0.50662863 0.24331252

fc1.weight f4 [10, 2]
00000000: c051 98be 0891 83be ceb0 efbd daa0 6dbe
00000010: 03b5 10be 1161 5bbe b5dd aebe 59e0 86be
00000020: 79ec b83e e8a7 af3e 2e4b a5be a221 8ebe
00000030: d2b0 e53e f666 3ebe e3e6 9a3e e35c 92be
00000040: db41 363e f114 583e c2b0 52bd cb3f 4b3e
-0.2974987 -0.25696588 -0.11703645 -0.23205891 -0.1413155 -0.21423747 -0.34153524 -0.2634304
0.36117914 0.3430779 -0.3228392 -0.27760035 0.44861466 -0.18593964 0.30254278 -0.28586492
0.1779856 0.21101739 -0.0514381 0.19848554

fc2.weight f4 [2, 10]
00000000: 56dc a63e f759 d83e ec34 7d3e 1041 9d3e
00000010: 3643 c4be d0be 9e3e 4325 7e3e 759f b73e
00000020: 8435 2ebe 1e6a aebe 1f76 7340 1b56 4a40
00000030: 8c4d 6240 9ead 8d40 3325 87c0 8e8f 7940
00000040: 5e4b 7340 07d2 8b40 e1c9 77c0 67a0 72c0
0.32589978 0.42256138 0.2472722 0.307137 -0.38332528 0.31004953 0.24818902 0.35863844
-0.17012602 -0.34065336 3.8040845 3.1615055 3.535983 4.4274435 -4.223291 3.899387
3.801475 4.369388 -3.8716967 -3.7910402

fc1.weight f4 [10, 2]
00000000: c051 98be 0891 83be ceb0 efbd daa0 6dbe
00000010: 03b5 10be 1161 5bbe b5dd aebe 59e0 86be
00000020: 79ec b83e e8a7 af3e 2e4b a5be a221 8ebe
00000030: d2b0 e53e f666 3ebe e3e6 9a3e e35c 92be
00000040: db41 363e f114 583e c2b0 52bd cb3f 4b3e
-0.2974987 -0.25696588 -0.11703645 -0.23205891 -0.1413155 -0.21423747 -0.34153524 -0.2634304
0.36117914 0.3430779 -0.3228392 -0.27760035 0.44861466 -0.18593964 0.30254278 -0.28586492
0.1779856 0.21101739 -0.0514381 0.19848554

fc2.weight f4 [2, 10]
00000000: 56dc a63e f759 d83e ec34 7d3e 1041 9d3e
00000010: 3643 c4be d0be 9e3e 4325 7e3e 759f b73e
00000020: 8435 2ebe 1e6a aebe 1f76 7340 1b56 4a40
00000030: 8c4d 6240 9ead 8d40 3325 87c0 8e8f 7940
00000040: 5e4b 7340 07d2 8b40 e1c9 77c0 67a0 72c0
0.32589978 0.42256138 0.2472722 0.307137 -0.38332528 0.31004953 0.24818902 0.35863844
-0.17012602 -0.34065336 3.8040845 3.1615055 3.535983 4.4274435 -4.223291 3.899387
3.801475 4.369388 -3.8716967 -3.7910402
