saved_models/mar/11/lon.pt (torch_old, 1613 bytes, 6 tensors)

fc1.weight f4 [10, 2]
-0.18798809 0.8926991 -0.11255741 -1.1808819 -0.12523362 1.5284147 0.0030028222 -0.066948615
0.06406673 0.6304233 -0.07698662 -0.86532766 0.12095848 1.4880588 -0.036921214 -0.0779517
-0.30663234 1.1168691 0.11708426 1.260322
00000000: f37f 40be ee87 643f 8084 e6bd 2327 97bf
00000010: 3e3d 00be 18a3 c33f ffca 443b 5b1c 89bd
00000020: 6b35 833d 6c63 213f 29ab 9dbd 1d86 5dbf
00000030: 14b9 f73d b678 be3f b33a 17bd 24a5 9fbd
00000040: eafe 9cbe 91f5 8e3f dfc9 ef3d 3b52 a13f

fc2.weight f4 [1, 10]
-0.8858788 1.1625336 -1.5073433 0.06907143 -0.617171 0.8571992 -1.4640863 0.07292533
-1.1036056 -1.2440743
00000000: f4c8 62bf e7cd 943f a0f0 c0bf 5275 8d3d
00000010: ebfe 1dbf 6871 5b3f 2e67 bbbf e059 953d
00000020: f342 8dbf d43d 9fbf

fc1.weight f4 [10, 2]
-0.123612955 1.402504 -0.18591702 0.20567644 0.38276136 1.5902805 0.011196783 -1.1522623
-0.14510058 0.33757177 -0.04500698 -0.447981 0.18522312 -0.2853446 -0.21588168 0.16370477
-0.051822446 -0.67908525 -0.5064609 0.67964613
00000000: ca28 fdbd 4085 b33f 0861 3ebe d89c 523e
00000010: 4cf9 c33e 508e cb3f b672 373c 557d 93bf
00000020: 3f95 14be 35d6 ac3e 3d59 38bd c45d e5be
00000030: 21ab 3d3e b018 92be 1610 5dbe 39a2 273e
00000040: c643 54bd 88d8 2dbf 6ca7 01bf 4afd 2d3f

fc2.weight f4 [2, 10]
-1.0354407 -0.046898365 -1.3867648 0.892443 -0.18873267 0.3747609 0.12706874 -0.062389445
0.5294333 -0.26263425 -0.3941828 -0.18803078 -0.036667187 0.22399555 -0.20005812 0.04499211
0.22653972 -0.17914763 0.08230589 -0.5454861
00000000: 5289 84bf 8018 40bd 8281 b1bf 2577 643f
00000010: 2343 41be a9e0 bf3e 4f1e 023e 138c 7fbd
00000020: f188 073f ff77 86be 54d2 c9be 248b 40be
00000030: 5530 16bd 175f 653e 09dc 4cbe a649 383d
00000040: 07fa 673e 7a72 37be fe8f a83d faa4 0bbf

fc1.weight f4 [10, 2]
-0.123612955 1.402504 -0.18591702 0.20567644 0.38276136 1.5902805 0.011196783 -1.1522623
-0.14510058 0.33757177 -0.04500698 -0.447981 0.18522312 -0.2853446 -0.21588168 0.16370477
-0.051822446 -0.67908525 -0.5064609 0.67964613
00000000: ca28 fdbd 4085 b33f 0861 3ebe d89c 523e
00000010: 4cf9 c33e 508e cb3f b672 373c 557d 93bf
00000020: 3f95 14be 35d6 ac3e 3d59 38bd c45d e5be
00000030: 21ab 3d3e b018 92be 1610 5dbe 39a2 273e
00000040: c643 54bd 88d8 2dbf 6ca7 01bf 4afd 2d3f

fc2.weight f4 [2, 10]
-1.0354407 -0.046898365 -1.3867648 0.892443 -0.18873267 0.3747609 0.12706874 -0.062389445
0.5294333 -0.26263425 -0.3941828 -0.18803078 -0.036667187 0.22399555 -0.20005812 0.04499211
0.22653972 -0.17914763 0.08230589 -0.5454861
00000000: 5289 84bf 8018 40bd 8281 b1bf 2577 643f
00000010: 2343 41be a9e0 bf3e 4f1e 023e 138c 7fbd
00000020: f188 073f ff77 86be 54d2 c9be 248b 40be
00000030: 5530 16bd 175f 653e 09dc 4cbe a649 383d
00000040: 07fa 673e 7a72 37be fe8f a83d faa4 0bbf
