saved_models/mar/29/col.pt (torch_old, 1613 bytes, 6 tensors)

fc1.weight f4 [10, 2]
0	0x3c4c4e2d	0.01246981
1	0xbf802959	-1.0012618
2	0xbbedf806	-0.0072622327
3	0x3ea0aa62	0.31379992
4	0x3d8cdb73	0.06877794
5	0x3d5f5fc4	0.05453469
6	0x3d09d876	0.0336537
7	0xbf04684f	-0.5172166
8	0xbe21f871	-0.15817429
9	0xbd864764	-0.065565854
10	0x3d403ce9	0.04693309
11	0xbf00261d	-0.50058156
12	0xbd9f1cef	-0.077691905
13	0xbe6d9659	-0.23201884
14	0xbc2cc03f	-0.010543882
15	0xbcb98388	-0.022645727
16	0x3e0f608a	0.1400167
17	0x3e4b4d77	0.19853769
18	0xbe422a6f	-0.189615
19	0xbefa74d5	-0.4891726

fc2.weight f4 [1, 10]
0	0xbf89a93e	-1.0754774
1	0x3ea6fe1b	0.32615742
2	0x3d8af7e5	0.067855634
3	0xbf00d8e6	-0.5033096
4	0xbd72d243	-0.059282552
5	0xbf037515	-0.5135053
6	0xbe7f4806	-0.24929819
7	0xbd03fc82	-0.032223232
8	0x3e13b868	0.14425814
9	0xbeee6e67	-0.46568605

fc1.weight f4 [10, 2]
0	0x3e0aadff	0.13542937
1	0x3eab9869	0.33514717
2	0x3e8215ab	0.25407156
3	0xbeb7f38d	-0.35928002
4	0x3e0923cf	0.13392566
5	0x3ed14f99	0.4088104
6	0x3dd0e6d8	0.1020028
7	0x3ec1552f	0.37760302
8	0x3d7ff0cb	0.062485497
9	0x3ec0b5e6	0.37638777
10	0x3e8f30fe	0.27967066
11	0x3eb9aa36	0.36262673
12	0x3cb6accc	0.022299193
13	0xbeb35f39	-0.35033587
14	0xbda33d8d	-0.07970724
15	0xbec41a92	-0.38301522
16	0x3ab3a40d	0.0013705507
17	0x3eaf4ff2	0.3424068
18	0x3df12000	0.11773682
19	0x3ecfbdee	0.40574592

fc2.weight f4 [2, 10]
0	0xbe5fd435	-0.21858294
1	0x3eb0a69b	0.3450211
2	0xbed110c5	-0.40833107
3	0xbeca6bfa	-0.39535505
4	0xbea470c4	-0.32117283
5	0xbeb1ae37	-0.34703228
6	0x3ebc7499	0.36807707
7	0x3e846f4c	0.25866163
8	0xbe800c31	-0.250093
9	0xbedf1f4b	-0.43578562
10	0xbfea2754	-1.8293252
11	0x3f8058af	1.0027064
12	0xbfa20760	-1.2658501
13	0xbfc026dc	-1.5011859
14	0xbfb2bc31	-1.3963681
15	0xbff3f8e6	-1.9060333
16	0x3fcb31c4	1.5874562
17	0x3fa81d62	1.3133967
18	0xbfcfa063	-1.6220821
19	0xbfa1f4ed	-1.265287

fc1.weight f4 [10, 2]
0	0x3e0aadff	0.13542937
1	0x3eab9869	0.33514717
2	0x3e8215ab	0.25407156
3	0xbeb7f38d	-0.35928002
4	0x3e0923cf	0.13392566
5	0x3ed14f99	0.4088104
6	0x3dd0e6d8	0.1020028
7	0x3ec1552f	0.37760302
8	0x3d7ff0cb	0.062485497
9	0x3ec0b5e6	0.37638777
10	0x3e8f30fe	0.27967066
11	0x3eb9aa36	0.36262673
12	0x3cb6accc	0.022299193
13	0xbeb35f39	-0.35033587
14	0xbda33d8d	-0.07970724
15	0xbec41a92	-0.38301522
16	0x3ab3a40d	0.0013705507
17	0x3eaf4ff2	0.3424068
18	0x3df12000	0.11773682
19	0x3ecfbdee	0.40574592

fc2.weight f4 [2, 10]
0	0xbe5fd435	-0.21858294
1	0x3eb0a69b	0.3450211
2	0xbed110c5	-0.40833107
3	0xbeca6bfa	-0.39535505
4	0xbea470c4	-0.32117283
5	0xbeb1ae37	-0.34703228
6	0x3ebc7499	0.36807707
7	0x3e846f4c	0.25866163
8	0xbe800c31	-0.250093
9	0xbedf1f4b	-0.43578562
10	0xbfea2754	-1.8293252
11	0x3f8058af	1.0027064
12	0xbfa20760	-1.2658501
13	0xbfc026dc	-1.5011859
14	0xbfb2bc31	-1.3963681
15	0xbff3f8e6	-1.9060333
16	0x3fcb31c4	1.5874562
17	0x3fa81d62	1.3133967
18	0xbfcfa063	-1.6220821
19	0xbfa1f4ed	-1.265287
