saved_models/mar/29/lon.pt (torch_old, 1613 bytes, 6 tensors)

fc1.weight f4 [10, 2]
000000 36 ae 10 3d 80 de be be e2 b0 0b 3d a4 55 eb 3e
       0.03532239 -0.3727913 0.034104235 0.45963776
000010 20 a4 48 3c ba ce 96 bf a5 dd 4b be 8c ad a4 3f
       0.012246162 -1.1781838 -0.1990877 1.2865462
000020 5e ef 31 bd fe 5a 1b 3f db 03 aa 3c 13 39 87 bf
       -0.04344117 0.6068572 0.020753792 -1.0564293
000030 34 f6 05 3d 1d de 41 3b ee f6 41 be d5 88 e6 3e
       0.0327055 0.0029581853 -0.18941852 0.4502627
000040 d0 74 95 3d 33 f6 3a 3f 46 cc f8 3d b5 62 82 be
       0.07297671 0.7303192 0.12148337 -0.25465932

fc2.weight f4 [1, 10]
000000 ef a7 b5 3e 77 80 dc be 67 bd 94 3f d8 31 a6 bf
       0.35479686 -0.4306676 1.1620301 -1.2983961
000010 46 66 16 bf 78 47 85 3f 1f 3e 42 bb 7a f9 ec be
       -0.58749807 1.0412436 -0.0029639078 -0.46284086
000020 83 12 37 bf 28 e6 8c 3e
       -0.7151262 0.27519345

fc1.weight f4 [10, 2]
000000 73 45 fd bd 46 6a fe bf 1b 4e 35 bd 42 56 5b bb
       -0.12366762 -1.9876182 -0.04426394 -0.0033468162
000010 06 32 80 3d 04 5e 63 3f d3 98 24 3e 46 94 cf bf
       0.06259541 0.8881533 0.16073923 -1.6217124
000020 1f 3f 95 be 0e a6 c0 bf 80 64 86 be 82 ec 00 bf
       -0.2914972 -1.5050676 -0.2624855 -0.5036088
000030 e3 e9 26 3d ce f8 a4 3f 34 c7 50 3e cb 40 5f bd
       0.040750396 1.2888429 0.2038849 -0.05450515
000040 86 ce 89 be 87 30 aa bf d5 fe 9e bd b9 7a c8 3f
       -0.26915377 -1.3296059 -0.07763449 1.5662452

fc2.weight f4 [2, 10]
000000 1f 0d 46 3f 40 da 41 3d 09 cb 95 be 94 a6 be 3e
       0.7736377 0.04732728 -0.29256466 0.37236464
000010 26 e8 35 3f a1 1e aa 3e fb 2f c2 be 9d db 3f be
       0.71057355 0.33226493 -0.3792723 -0.1873612
000020 17 1a 27 3f e0 48 e0 be 4c 9d da 3f 9a a1 35 bc
       0.65274185 -0.438056 1.7079253 -0.011085892
000030 5e f8 48 bf cb 89 bc 3f 6b 87 a0 3f 51 f0 ce 3e
       -0.7850398 1.4729551 1.2541326 0.40417722
000040 59 5a 95 bf ee d5 eb 3d 79 ed 8e 3f 78 ec b0 bf
       -1.1668197 0.11515413 1.1166221 -1.3822165

fc1.weight f4 [10, 2]
000000 73 45 fd bd 46 6a fe bf 1b 4e 35 bd 42 56 5b bb
       -0.12366762 -1.9876182 -0.04426394 -0.0033468162
000010 06 32 80 3d 04 5e 63 3f d3 98 24 3e 46 94 cf bf
       0.06259541 0.8881533 0.16073923 -1.6217124
000020 1f 3f 95 be 0e a6 c0 bf 80 64 86 be 82 ec 00 bf
       -0.2914972 -1.5050676 -0.2624855 -0.5036088
000030 e3 e9 26 3d ce f8 a4 3f 34 c7 50 3e cb 40 5f bd
       0.040750396 1.2888429 0.2038849 -0.05450515
000040 86 ce 89 be 87 30 aa bf d5 fe 9e bd b9 7a c8 3f
       -0.26915377 -1.3296059 -0.07763449 1.5662452

fc2.weight f4 [2, 10]
000000 1f 0d 46 3f 40 da 41 3d 09 cb 95 be 94 a6 be 3e
       0.7736377 0.04732728 -0.29256466 0.37236464
000010 26 e8 35 3f a1 1e aa 3e fb 2f c2 be 9d db 3f be
       0.71057355 0.33226493 -0.3792723 -0.1873612
000020 17 1a 27 3f e0 48 e0 be 4c 9d da 3f 9a a1 35 bc
       0.65274185 -0.438056 1.7079253 -0.011085892
000030 5e f8 48 bf cb 89 bc 3f 6b 87 a0 3f 51 f0 ce 3e
       -0.7850398 1.4729551 1.2541326 0.40417722
000040 59 5a 95 bf ee d5 eb 3d 79 ed 8e 3f 78 ec b0 bf
       -1.1668197 0.11515413 1.1166221 -1.3822165
